HW1/model.pkl (torch_old, 255432 bytes, 8 tensors)

fc1.weight f4 [76, 784]
0.021905145 0.0009591703 0.028326847 0.035687376 -0.012366158 0.019875105 0.017000558 -0.019702375
0.005374361 -0.02359667 -0.01689883 -0.030012928 -0.015144054 -0.012560833 -0.021573737 -0.005408874
0.023210732 0.018410064 0.0010099141 -0.009588391 -0.029695354 -0.033187196 0.0035436433 0.012653945
-0.004699477 -0.001345594 -0.033863418 0.02710723 0.025958836 -0.0355707 -0.013812777 -0.004349829
-0.028781602 0.018113147 0.0014414983 -0.0008186507 -0.020204023 -0.027170049 -0.010904615 0.02381633
-0.022941412 0.02916351 -0.005657979 -0.0043667806 0.032753106 -0.0031467276 -0.019568622 -0.013162194
-0.0010865582 0.021013929 -0.029856369 -0.01699907 -0.027631992 0.03525801 -0.008965789 -0.005672811
0.0020869623 0.033284646 -0.008637648 -0.015066303 -0.004215247 -0.033527557 -0.030998062 -0.024673317
0.011379397 0.024003072 -0.025194276 -0.016340012 -0.007455821 0.016360288 0.0065739066 0.051413763
-0.033114895 0.01202766 -0.012010694 0.00659141 0.029580548 -0.0032207887 -0.0031606243 -0.023815181
-0.02725313 0.016901249 -0.02710125 0.026162863 0.03331005 -0.032139476 -0.023880878 -0.0038119447
0.009037377 0.005652174 -0.0040182974 0.024908897 0.016146464 0.010473324 -0.020261642 -0.05263122
0.04438113 0.039292496 0.015410991 -0.063164435 -0.041937012 -0.07146377 -0.034600344 -0.023187142
-0.0481154 -0.050517336 -0.008552659 -0.01767638 -0.016289609 -0.018322932 -0.0031048707 0.0018611248
-0.032397587 -0.007951682 -0.026098877 -0.02763436 0.008976336 0.015335302 -0.00015743943 -0.041572735
-0.068291016 -0.012126386 -0.023951238 -0.009546922 -0.030376956 -0.0067474446 -0.0011393081 0.018817285
0.013059973 -0.09973679 -0.1179779 -0.17979552 -0.15745507 -0.04876377 0.08645646 0.060516126
0.046655584 0.006340197 -0.009564798 -0.030525893 0.011855828 -0.014249187 0.0034530088 0.035671946
-0.021543682 0.03919671 -0.0026501417 -0.06567043 -0.06119743 -0.06821433 0.04573964 0.09810333
0.08202616 0.1845885 0.025991991 -0.2176448 0.005497692 0.0373256 -0.14299709 -0.12625565
0.09061925 0.0600225 0.15757917 0.12797612 0.0957455 0.071033515 -0.024685338 -0.013236254
-0.03441341 0.017009659 0.025247263 -0.0019284823 -0.040222995 -0.02122151 -0.073977865 -0.065321766
-0.0778009 -0.0006291454 0.08551981 0.07060681 0.12952383 0.20171818 0.16621518 0.059893668
-0.1023392 -0.106616825 -0.09214742 0.07377552 0.24364045 0.19791847 0.20872054 0.14099152
0.11214776 0.044749465 0.03369209 -0.0073152846 0.00859917 0.0040843324 -0.02131611 -0.034739673
-0.01984432 -0.039680194 -0.08366025 -0.117178895 -0.18756743 -0.0029466192 -0.10618467 0.11141872
0.11262585 0.01944636 0.1282185 0.13620043 0.21673714 0.17068696 0.17757435 0.17438807
0.27865914 0.17511684 0.1924375 0.14410533 0.005303071 0.013642195 -0.016429512 0.029968157
-0.0004751789 -0.0038016764 0.013211485 0.0030059149 -0.010351262 -0.048179403 -0.11022797 -0.13386518
-0.16802146 -0.11411899 -0.07895038 -0.037902515 0.014461184 0.064322464 0.054915253 0.2549873
0.35045105 0.24720763 0.15785192 0.14266686 0.24609835 0.048117183 0.012133161 0.12064597
0.0060192277 -0.07058606 0.023172142 -0.034779824 -0.03262398 0.010654922 -0.034562994 0.011075631
00000000: 6b72 b33c d470 7b3a b40d e83c ed2c 123d
00000010: 6d9b 4abc 1ed1 a23c c144 8b3c e066 a1bc
00000020: 681b b03b ce4d c1bc 6a6f 8abc acdd f5bc
00000030: c41e 78bc f4cb 4dbc 68bb b0bc ec3c b1bb
00000040: 6f24 be3c b4d0 963c 185f 843a a018 1dbc
00000050: ac43 f3bc 4cef 07bd 783c 683b 7e52 4f3c
00000060: 12fe 99bb a45e b0ba 5eb4 0abd fb0f de3c
00000070: a0a7 d43c 95b2 11bd fc4e 62bc 0389 8ebb
00000080: 65c7 ebbc 0662 943c a8f0 bc3a b89a 56ba
00000090: e882 a5bc b993 debc 45a9 32bc 771a c33c
000000a0: a1ef bbbc 50e8 ee3c 9166 b9bb 3617 8fbb
000000b0: 1f28 063d 5439 4ebb 604e a0bc 3ea6 57bc
000000c0: d86a 8eba 6725 ac3c 5895 f4bc a241 8bbc
000000d0: 7d5c e2bc b46a 103d 3fe5 12bc fde2 b9bb
000000e0: 6bc5 083b 7b55 083d ec84 0dbc a8d8 76bc
000000f0: 0e20 8abb 3154 09bd a6ef fdbc b21f cabc
00000100: a670 3a3c 17a2 c43c 3a64 cebc 7ddb 85bc
00000110: f64f f4bb 0306 863c ed69 d73b 3d97 523d
00000120: 7ca3 07bd aa0f 453c 80c8 44bc c1fc d73b
00000130: e852 f23c de13 53bb 7a22 4fbb 0e18 c3bc
00000140: f541 dfbc 7d74 8a3c 7103 debc 8053 d63c
00000150: 1e70 083d afa4 03bd d5a1 c3bc d2d1 79bb
00000160: 8211 143c df35 b93b ecab 83bb be0d cc3c
00000170: 9745 843c 4e98 2b3c befb a5bc d693 57bd
00000180: fdc8 353d 2bf1 203d 627e 7c3c 5b5c 81bd
00000190: 25c6 2bbd 995b 92bd 17b9 0dbd f6f2 bdbc
000001a0: a714 45bd 44eb 4ebd 7420 0cbc 0ece 90bc
000001b0: c971 85bc f919 96bc 167b 4bbb fcf0 f33a
000001c0: 55b3 04bd c647 02bc 50cd d5bc 7461 e2bc
000001d0: 7b11 133c eb40 7b3c 5316 25b9 2c48 2abd
000001e0: 29dc 8bbd c0ad 46bc 6335 c4bc b16a 1cbc
000001f0: 18d9 f8bc ab19 ddbb d654 95ba b526 9a3c
00000200: 7ff9 553c cd42 ccbd 669e f1bd 511c 38be
00000210: e73b 21be 85bc 47bd 1610 b13d c2df 773d
00000220: ed19 3f3d 6dc1 cf3b acb5 1cbc 7011 fabc
00000230: f23e 423c 6c75 69bc e04b 623b bf1c 123d
00000240: 607c b0bc bb8c 203d 00ae 2dbb 387e 86bd
00000250: 28aa 7abd f4b3 8bbd 7d59 3b3d 66ea c83d
00000260: 55fd a73d c504 3d3e 28ed d43c 47de 5ebe
00000270: fc25 b43b bae2 183d d46d 12be 2949 01be
00000280: 9696 b93d 27da 753d 6f5c 213e 2c0c 033e
00000290: 3716 c43d 057a 913d e838 cabc e0dc 58bc
000002a0: 13f5 0cbd d757 8b3c 59d3 ce3c 21c5 fcba
000002b0: dec0 24bd bbd8 adbc b581 97bd 6bc7 85bd
000002c0: 1456 9fbd 3ced 24ba 0325 af3d 4e9a 903d
000002d0: e5a1 043e 368f 4e3e 5034 2a3e 1053 753d
000002e0: 3797 d1bd ec59 dabd c9b7 bcbd 9f17 973d
000002f0: e27c 793e 24ab 4a3e d6ba 553e 1560 103e
00000300: baad e53d 374b 373d b800 0a3d 0eb5 efbb
00000310: 88e3 0c3c ddd5 853b 1f9f aebc 304b 0ebd
00000320: 8e90 a2bc b387 22bd 1156 abbd 7dfb efbd
00000330: ad11 40be 111c 41bb 5977 d9bd 7f2f e43d
00000340: 62a8 e63d f94d 9f3c b64b 033e 2078 0b3e
00000350: 57f0 5d3e 90c8 2e3e 0dd6 353e c992 323e
00000360: 69ac 8e3e d451 333e 560e 453e 5990 133e
00000370: 62c5 ad3b 8383 5f3c 2f97 86bc c87f f53c
00000380: 6f21 f9b9 8c25 79bb fc74 583c e2fe 443b
00000390: 5798 29bc c457 45bd 34bf e1bd f413 09be
000003a0: d10d 2cbe 38b7 e9bd bdb0 a1bd ab3f 1bbd
000003b0: 9aee 6c3c 7fbb 833d d1ee 603d b28d 823e
000003c0: 526e b33e ff23 7d3e efa3 213e 4317 123e
000003d0: 3501 7c3e 8616 453d 2aca 463c 3c15 f73d
000003e0: f13c c53b 6d8f 90bd 81d3 bd3c 4a75 0ebd
000003f0: b9a0 05bd fb91 2e3c ed91 0dbd 9076 353c

fc1.bias f4 [76]
-0.029368838 -0.008888246 0.007227886 -0.021128517 -0.043498993 -0.067594945 -0.06999843 -0.042828534
-0.081097454 0.035326123 -0.047150604 -0.035274018 0.011059508 -0.0262995 -0.073197 -0.018420205
-0.03781387 -0.033299614 -0.046812944 -0.0013816935 -0.0851251 -0.05520912 -0.023227213 -0.07575707
-0.023597322 -0.060133103 -0.08590906 0.0011494026 -0.013520497 -0.0041783447 0.03492687 -0.06306534
-0.032176696 -0.054265723 -0.05510745 0.00320355 0.011515402 -0.03716152 0.0011371464 -0.07080007
0.044954687 -0.109948665 -0.108630665 -0.016166419 -0.09549912 0.0055831843 -0.070261516 -0.019319791
-0.015627807 0.030638037 -0.03375473 -0.011841961 -0.028365614 -0.09325005 -0.0020832876 -0.055656165
-0.027359093 -0.014159191 -0.06494912 0.026228178 -0.057535015 0.037389953 -0.0283103 -0.08805474
-0.03308256 -0.06556767 -0.083330624 -0.017723031 -0.050702102 -0.029148066 -0.027319446 -0.051347446
0.014072236 -0.026986955 -0.05367854 -0.043246023
00000000: eb96 f0bc 01a0 11bc e7d7 ec3b b615 adbc
00000010: 002c 32bd 386f 8abd 565b 8fbd f96c 2fbd
00000020: 6c16 a6bd 20b2 103d fe20 41bd 7d7b 10bd
00000030: f032 353c 0d72 d7bc 4fe8 95bd f8e5 96bc
00000040: b7e2 1abd 2d65 08bd eebe 3fbd f119 b5ba
00000050: 1256 aebd f522 62bd ff46 bebc 8626 9bbd
00000060: 2c4f c1bc 214e 76bd 17f1 afbd 8da7 963a
00000070: 1385 5dbc 7fea 88bb 7a0f 0f3d 6728 81bd
00000080: b6cb 03bd bc45 5ebd 59b8 61bd a6f2 513b
00000090: 19ab 3c3c ae36 18bd 4d0c 953a a1ff 90bd
000000a0: 6822 383d c42c e1bd c179 debd 706f 84bc
000000b0: 0b95 c3bd 25f3 b63b 45e5 8fbd 8a44 9ebc
000000c0: e305 80bc 9ffc fa3c 6642 0abd c904 42bc
000000d0: 015f e8bc e2f9 bebd c487 08bb b8f7 63bd
000000e0: 2d20 e0bc f4fb 67bc 0b04 85bd 7adc d63c
000000f0: d6a9 6bbd 3526 193d 01eb e7bc 0b56 b4bd
00000100: 9481 07bd 5848 86bd 3fa9 aabd e42f 91bc
00000110: 02ad 4fbd edc7 eebc 08cd dfbc b351 52bd
00000120: 3c8f 663c bf13 ddbc 07de 5bbd be22 31bd

fc2.weight f4 [38, 76]
0.030618519 -0.08319347 0.0780937 -0.08623597 0.27064806 0.09724148 0.06706701 0.10273246
0.09812092 -0.62081784 -0.3615023 -0.02448527 0.70359105 -0.040167995 -0.13746618 0.04934562
-0.13984448 0.059612576 -0.08692614 0.060228568 0.41525793 0.39562765 -0.08666094 -0.13141236
-0.38124937 -0.09621927 -0.16731803 -0.10063789 0.064895734 -0.25841972 0.0042099906 0.28245598
-0.037646495 0.006025627 -0.20967807 -0.604527 0.04653268 -0.04869539 0.13610142 -0.03861441
0.3737616 0.06501201 0.32768562 -0.075085334 -0.2713355 0.14419837 0.43454555 -0.09954967
-0.5085012 -0.12727992 0.20177065 0.3918883 0.13909027 0.5786418 0.24334335 -0.00077110506
0.08015672 0.3907689 0.56027895 0.26061508 0.022662159 -0.11690573 -0.049586702 0.03895905
0.16310072 0.073601514 0.09263865 0.090027206 -0.1582931 -0.38798937 -0.025188962 -0.23701705
-0.27866754 -0.08397535 -0.29880938 -0.25784594 0.22400826 0.22113042 0.28359255 -0.16693483
-0.051558577 0.2819059 0.0019488132 -0.52676564 -0.31839445 -0.075015195 0.17610976 -0.10165153
-0.3245592 0.15823929 0.25394374 -0.0337044 -0.3890526 -0.2931663 -0.56469667 -0.23780125
-0.26842174 0.08414507 0.3036296 -0.023463 0.20662734 0.07321443 0.21725234 -0.3978866
-0.6218768 0.2149116 -0.06927624 -0.12709951 0.15311776 0.13040887 0.41975236 -0.15275274
0.49076238 0.09653173 -0.18777218 -0.37181377 -0.08879499 0.1039594 0.15592854 -0.0652161
-0.13673241 0.23752712 0.033289053 0.0030497902 0.2647956 0.20442915 -0.26044953 -0.24167046
0.075076915 -0.22937267 -0.18107516 -0.32725105 0.066433124 -0.7612263 0.21284604 0.3099711
-0.50925523 0.10073227 -0.5923483 -0.6301119 -0.19085221 0.0372273 -0.3150302 -0.06690207
0.5108025 -0.18050152 0.41521388 0.13458264 -0.029582286 -0.5331533 -0.054354887 0.07145205
0.06043858 -0.16846456 -0.14579983 -0.20573819 0.028894283 -0.29478183 0.20696995 -0.24449316
0.21646746 -0.19624624 0.031943765 -0.019603128 -0.50051874 -0.060863953 0.14249495 -0.17657429
0.304811 -0.14595512 0.23332576 -0.23539786 0.31660584 -0.35203505 -0.04222673 -0.04955116
-0.029516816 0.09438953 -0.019233163 0.047160435 -0.31256178 0.034791674 -0.15443061 0.006888479
-0.061904635 -0.13429812 -0.03973558 0.18800513 -0.2266639 -0.45692778 0.2787723 -0.3377288
0.1997372 -0.124850124 -0.23215684 0.02880766 0.08153377 -0.16807081 -0.48801294 0.31548053
0.26121074 -0.12069461 0.02872896 -0.23376608 -0.027992422 -0.3030456 -0.4262783 0.1621503
0.038160447 0.20626211 -0.1573277 -0.08578063 0.11894597 -0.25864208 0.02606471 -0.29234368
-0.23464333 -0.49611682 -0.10922997 -0.097630806 0.2643777 -0.14902373 0.29235467 0.42280737
-0.15020129 -0.16139802 0.3431236 0.09637893 0.17332354 0.26150608 -0.32085967 -0.39490265
-0.6936686 0.21701796 -0.5565625 0.18590796 0.27706745 0.0622638 -0.10359729 0.06042867
-0.14010501 0.13556974 0.026254274 -0.03921897 -0.071213245 -0.5483434 -0.025789367 -0.2455868
0.5196816 -0.18969092 0.12483778 -0.26156247 0.16623412 0.12957022 0.030535206 -0.5943052
00000000: b0d3 fa3c 5761 aabd 97ef 9f3d 7c9c b0bd
00000010: 6292 8a3e 8b26 c73d 6e5a 893d 6565 d23d
00000020: 9ff3 c83d ebed 1ebf d416 b9be 5595 c8bc
00000030: 8b1e 343f 3287 24bd efc3 0cbe a21e 4a3d
00000040: 6433 0fbe 512c 743d 5506 b2bd 3bb2 763d
00000050: b09c d43e b58f ca3e 4a7b b1bd f690 06be
00000060: 1e33 c3be 9c0e c5bd 6b55 2bbe 3d1b cebd
00000070: 0ee8 843d 974f 84be f6f3 893b 129e 903e
00000080: 3633 1abd 9f72 c53b d9b5 56be 48c2 1abf
00000090: 0d99 3e3d d174 47bd 2c5e 0b3e 252a 1ebd
000000a0: ae5d bf3e 0425 853d 69c6 a73e 57c6 99bd
000000b0: 7dec 8abe bda8 133e c17c de3e b3e0 cbbd
000000c0: 222d 02bf ab55 02be f79c 4e3e 95a5 c83e
000000d0: ae6d 0e3e de21 143f 002f 793e fc23 4aba
000000e0: 3529 a43d dc12 c83e 716e 0f3f 576f 853e
000000f0: fea5 b93c 456c efbd 6d1b 4bbd 8693 1f3d
00000100: e003 273e 64bc 963d 55b9 bd3d 2f60 b83d
00000110: 9617 22be 8ba6 c6be 1559 cebc 99b4 72be
00000120: 83ad 8ebe 45fb abbd 8bfd 98be 6204 84be
00000130: 6c62 653e 0370 623e 0b33 913e f7f0 2abe
00000140: 162f 53bd f855 903e 526f ff3a 1dda 06bf
00000150: 9904 a3be 91a1 99bd 1e56 343e ad2e d0bd
00000160: a02c a6be 7b09 223e ea04 823e a00d 0abd
00000170: e731 c7be e519 96be f68f 10bf 2c82 73be
00000180: 936e 89be 4054 ac3d 5775 9b3e 7a35 c0bc
00000190: 1e96 533e 72f1 953d 6677 5e3e cbb7 cbbe
000001a0: 5133 1fbf c911 5c3e b4e0 8dbd 6026 02be
000001b0: e7ca 1c3e e789 053e c8e9 d63e 376b 1cbe
000001c0: 3545 fb3e 6db2 c53d 5a47 40be 605e bebe
000001d0: 26da b5bd aae8 d43d bbab 1f3e 0590 85bd
000001e0: 9503 0cbe 4f3a 733e 1a5a 083d fdde 473b
000001f0: 4a93 873e e055 513e a459 85be 7678 77be
00000200: edc1 993d abe0 6abe c46b 39be 738d a7be
00000210: 170e 883d badf 42bf 50f4 593e 88b4 9e3e
00000220: 8d5e 02bf b84c ce3d 23a4 17bf 034f 21bf
00000230: c36e 43be a77b 183d a34b a1be f403 89bd
00000240: f4c3 023f 64d5 38be ea96 d43e 08d0 093e
00000250: 8d56 f2bc bc7c 08bf 3ba3 5ebd 7455 923d
00000260: 728e 773d f981 2cbe 8d4c 15be 08ad 52be
00000270: b4b3 ec3c a5ed 96be eeef 533e 6a5c 7abe
00000280: a5a9 5d3e c6f4 48be 77d7 023d bd96 a0bc
00000290: ff21 00bf 7b4c 79bd 32ea 113e e4cf 34be
000002a0: 3010 9c3e 4275 15be f3ec 6e3e 230c 71be
000002b0: 291a a23e f03d b4be f0f5 2cbd 28f6 4abd
000002c0: 40cd f1bc 4c4f c13d de8e 9dbc 4d2b 413d
000002d0: 1908 a0be b781 0e3d 0f23 1ebe c0b8 e13b
000002e0: b78f 7dbd 7285 09be c7c1 22bd 6b84 403e
000002f0: 951a 68be 70f2 e9be 3ebb 8e3e caea acbe
00000300: e987 4c3e 6cb1 ffbd 86ba 6dbe 0bfe eb3c
00000310: 2dfb a63d c11a 2cbe d5dc f9be aa86 a13e
00000320: 6abd 853e bc2e f7bd ff58 eb3c 6060 6fbe
00000330: 5d50 e5bc cb28 9bbe 2641 dabe ba0a 263e
00000340: 214e 1c3d 6036 533e 831a 21be c1ad afbd
00000350: f299 f33d bc6c 84be a985 d53c 12ae 95be
00000360: 5746 70be 0603 febe f6b3 dfbd a9f2 c7bd
00000370: 845c 873e ad99 18be 83af 953e 357a d83e
00000380: 5ece 19be 8645 25be e6ad af3e 5162 c53d
00000390: ba7b 313e 20e4 853e b847 a4be ae30 cabe
000003a0: 4494 31bf f539 5e3e e17a 0ebf a85e 3e3e
000003b0: c9db 8d3e 5408 7f3d d12a d4bd 0e84 773d
000003c0: b077 0fbe cbd2 0a3e 3413 d73c 12a4 20bd
000003d0: 40d8 91bd 3c60 0cbf 3944 d3bc 1b7b 7bbe
000003e0: da09 053f 563e 42be f3aa ff3d 84eb 85be
000003f0: 4739 2a3e 0eae 043e f824 fa3c 6324 18bf

fc2.bias f4 [38]
-0.18614703 0.024781166 -0.037875846 0.16698197 0.24251242 0.09350449 -0.06821372 0.49808154
0.10064317 -0.095879935 -0.09951817 -0.22486742 -0.197872 0.10590846 0.27153513 -0.12104882
-0.30904144 -0.23599312 0.28032762 -0.05484646 -0.016950715 0.3376292 -0.057243053 -0.24601494
0.33728257 -0.054851472 0.28833327 -0.052501287 0.4260934 -0.06155995 0.11383922 0.020772504
-0.25269747 -0.013099889 0.06491663 -0.09143138 -0.025923321 0.08555436
00000000: 549d 3ebe df01 cb3c b423 1bbd 52fd 2a3e
00000010: 2d55 783e 487f bf3d a3b3 8bbd 8b04 ff3e
00000020: 021e ce3d b35c c4bd 2fd0 cbbd a543 66be
00000030: f59e 4abe 89e6 d83d a706 8b3e 72e8 f7bd
00000040: ae3a 9ebe 2ea8 71be 1a87 8f3e afa6 60bd
00000050: 3adc 8abc bcdd ac3e b177 6abd 57eb 7bbe
00000060: 4db0 ac3e f0ab 60bd 6ba0 933e 970b 57bd
00000070: ea28 da3e 4926 7cbd 8924 e93d 192b aa3c
00000080: 9061 81be eba0 56bc 03f3 843d 6040 bbbd
00000090: 255d d4bc 2037 af3d

fc3.weight f4 [19, 38]
0.13151269 0.11517025 0.011805223 -0.2788727 -0.0065881563 -0.1867592 0.10993015 0.15298623
-0.12749405 0.16006024 0.029536963 -0.033696286 -0.08497285 -0.061120324 0.016632974 -0.099673636
0.06340451 -0.085220456 0.08630344 0.20238665 -0.20364934 -0.01564198 0.09121932 0.09574747
-0.057036743 0.05150778 0.08282808 0.1591338 -0.30221158 -0.10691865 -0.15042268 0.0034659288
0.047375154 -0.14707395 -0.086528994 -0.16689871 -0.12023198 -0.09326592 -0.07773284 0.25265554
-0.25188228 0.18319084 -0.26689333 -0.32520968 -0.055224 -0.08775531 0.21228164 0.21610099
0.09128479 0.26282656 0.068797566 -0.20595069 -0.28196907 -0.30287704 -0.27678403 0.025755128
0.1275043 0.39580318 -0.3856495 -0.53166056 -0.031207275 -0.18135037 -0.16550183 0.2129631
-0.21913019 -0.16676857 -0.06787204 0.23181508 0.27532357 0.06525739 -0.043434236 0.4308708
0.27205426 0.18458827 -0.093911365 0.25350025 0.24708784 -0.33688965 -0.021472683 0.016451983
-0.17195857 0.22564037 0.35001597 -0.49430642 0.29764304 -0.43362722 -0.1667331 0.07414041
0.1856556 0.116889514 -0.37587392 -0.26527277 0.52445567 0.040150195 0.5967484 0.33669
-0.26581907 -0.18141991 0.07009196 0.13538724 -0.3892621 0.04612762 -0.3313644 -0.49549636
0.3353668 0.10052796 -0.06791614 0.055571772 0.27596796 -0.41177914 0.36561635 0.50160086
0.38744813 -0.016612388 -0.43309712 0.43327934 0.670682 -0.5940986 -0.15206943 0.3997703
0.08909656 -0.5204444 0.0017824536 0.04866608 -0.5212902 -0.11846369 0.03269802 0.11014561
-0.3738448 -0.052396886 -0.3899475 0.30939105 0.06280657 -0.23903802 -0.16670908 0.124294
0.34807914 0.024248868 0.3954894 0.21201304 0.7513638 -0.120414324 -0.58845234 0.10961206
0.31937462 -0.19755584 0.32034758 -0.02009208 0.123508416 -0.030993477 -0.37261987 -0.16964537
0.16501337 -0.43584886 0.28913766 0.22525011 -0.6084456 0.07218035 -0.04780673 -0.031183783
-0.018158374 -0.30756012 0.21293537 -0.44198117 -0.15254925 -0.299894 0.46488392 -0.07871881
0.35945618 0.1963457 -0.08767275 -0.223209 0.6928375 -0.03560573 -0.48627797 0.10797721
-0.17071591 -0.63192934 0.030292848 0.03450022 0.102711745 0.22435674 0.534965 -0.4521977
0.108778805 0.00819289 -0.51714694 0.051993243 0.18693326 -0.3551689 0.03639194 -0.06979379
0.05027563 -0.13726227 0.20330663 -0.3179387 -0.48338673 0.098460875 -0.10858546 -0.28985998
0.8522793 -0.056589164 0.12488657 0.5876781 0.22885688 -0.020074923 0.11802065 -0.14301498
0.067065224 -0.20626222 0.11497019 0.0051818816 -0.45628992 0.44147992 0.046148624 0.40936175
0.37449238 0.0020402654 0.21426979 -0.27242362 0.24673712 -0.16135983 -0.088125385 -0.64259005
0.11663593 -0.4742025 0.16515625 -0.56665206 0.07773569 0.10433498 0.0042241784 0.17692219
-0.60205084 0.21462345 0.079732805 0.29040247 -0.19636323 -0.10318272 -0.24752073 -0.31621525
-0.7297612 0.5555303 0.21814941 -0.08865492 -0.12813358 -0.340607 -0.07389659 0.051218692
0.35735297 -0.28469187 0.4260004 -0.26217517 0.09011865 -0.18659443 -0.040321678 0.38101593
00000000: 43ab 063e 61de eb3d b26a 413c 67c8 8ebe
00000010: 76e1 d7bb ce3d 3fbe 0f23 e13d 6ca8 1c3e
00000020: cd8d 02be d5e6 233e 80f7 f13c 1e05 0abd
00000030: 3f06 aebd 4e59 7abd e041 883c b121 ccbd
00000040: 39da 813d 1088 aebd dcbf b03d 723e 4f3e
00000050: 7489 50be 9c23 80bc 32d1 ba3d 4017 c43d
00000060: 5c9f 69bd d2f9 523d c5a1 a93d f9f3 223e
00000070: 7abb 9abe 2af8 dabd 6708 1abe a324 633b
00000080: 730c 423d 8e9a 16be 1d36 b1bd 7fe7 2abe
00000090: 2f3c f6bd 3402 bfbd 6532 9fbd 115c 813e
000000a0: b7f6 80be 6196 3b3e 3ea6 88be e281 a6be
000000b0: 9032 62bd 0eb9 b3bd 5c60 593e 9449 5d3e
000000c0: 85f3 ba3d 3491 863e bde5 8c3d bde4 52be
000000d0: 405e 90be b312 9bbe a3b6 8dbe 6bfc d23c
000000e0: 7d90 023e b7a6 ca3e da73 c5be e81a 08bf
000000f0: 66a6 ffbc e9b3 39be 5079 29be 0013 5a3e
00000100: aa63 60be 61c5 2abe 7f00 8bbd ef60 6d3e
00000110: 36f7 8c3e aba5 853d 19e8 31bd 199b dc3e
00000120: b24a 8b3e b504 3d3e 9a54 c0bd c9ca 813e
00000130: 9804 7d3e cd7c acbe 7be7 afbc 4fc6 863c
00000140: e815 30be 450e 673e 4b35 b33e bb15 fdbe
00000150: ab64 983e 6304 debe 15bc 2abe edd6 973d
00000160: 801c 3e3e c563 ef3d 8c72 c0be d5d1 87be
00000170: ba42 063f 8874 243d 81c4 183f a262 ac3e
00000180: 7019 88be 24c6 39be 608c 8f3d f4a2 0a3e
00000190: 5d4d c7be 51f0 3c3d 98a8 a9be b3b1 fdbe
000001a0: 32b5 ab3e 9ae1 cd3d 9e17 8bbd 3a9f 633d
000001b0: ac4b 8d3e b7d4 d2be 1132 bb3e ea68 003f
000001c0: 9a5f c63e b416 88bc e8be ddbe cad6 dd3e
000001d0: d1b1 2b3f d916 18bf 17b8 1bbe b1ae cc3e
000001e0: 4278 b63d d83b 05bf 38a1 e93a 1556 473d
000001f0: 4673 05bf 179d f2bd 5cee 053d 0694 e13d
00000200: 9668 bfbe 1e9e 56bd 33a7 c7be 8168 9e3e
00000210: bba0 803d 62c6 74be c9b5 2abe da8d fe3d
00000220: 6e37 b23e 90a5 c63c 967d ca3e f219 593e
00000230: 6159 403f c99b f6bd d0a4 16bf 4a7c e03d
00000240: 1285 a33e 144c 4abe 9904 a43e 2598 a4bc
00000250: fbf1 fc3d 08e6 fdbc 08c8 bebe 84b7 2dbe
00000260: 44f9 283e 9527 dfbe da09 943e f7a7 663e
00000270: 17c3 1bbf 4bd3 933d fdd0 43bd 2275 ffbc
00000280: dfc0 94bc 8578 9dbe bb0b 5a3e 5b4b e2be
00000290: df35 1cbe b58b 99be 4405 ee3e 5437 a1bd
000002a0: a40a b83e d90e 493e c58d b3bd e690 64be
000002b0: cc5d 313f 50d7 11bd 6df9 f8be 2823 dd3d
000002c0: 27d0 2ebe 1fc6 21bf b528 f83c 1a50 0d3d
000002d0: 895a d23d c6bd 653e 77f3 083f 7586 e7be
000002e0: 6cc7 de3d 793b 063c be63 04bf def6 543d
000002f0: 6f6b 3f3e b3d8 b5be b70f 153d 0cf0 8ebd
00000300: d2ed 4d3d 7b8e 0cbe 9d2f 503e dcc8 a2be
00000310: 777e f7be dba5 c93d 0e62 debd 8768 94be
00000320: fa2e 5a3f 0aca 67bd 88c4 ff3d 1272 163f
00000330: 7559 6a3e 2a74 a4bc d0b4 f13d 8572 12be
00000340: 7e59 893d 6736 53be 7e75 eb3d c6cc a93b
00000350: d59e e9be a809 e23e 5706 3d3d dd97 d13e
00000360: 77bd bf3e f9b5 053b 8a69 5b3e 1c7b 8bbe
00000370: a8a8 7c3e 833b 25be 157b b4bd c880 24bf
00000380: d2de ee3d acca f2be b81e 293e 1c10 11bf
00000390: e433 9f3d 94ad d53d fa6a 8a3b 172b 353e
000003a0: 0120 1abf 40c6 5b3e f44a a33d a2af 943e
000003b0: 7113 49be 7651 d3bd 1376 7dbe f7e6 a1be
000003c0: a1d1 3abf 3c37 0e3f 8f62 5f3e b690 b5bd
000003d0: 7335 03be 0a64 aebe 1857 97bd b1ca 513d
000003e0: f8f6 b63e 22c3 91be b91c da3e d33b 86be
000003f0: 2090 b83d 9c12 3fbe 5828 25bd 8514 c33e

fc3.bias f4 [19]
0.021614563 -0.31321907 -0.38433224 0.2085425 0.28043753 0.43675157 0.21661748 0.59761363
-0.14772233 -0.22326541 -0.27578062 -0.20111106 0.4458587 0.09666301 0.58084935 0.1524652
-0.11839576 0.34236398 -0.07948811
00000000: 0611 b13c 405e a0be 32c7 c4be 2a8c 553e
00000010: 8295 8f3e e79d df3e f9d0 5d3e 35fd 183f
00000020: 8644 17be b09f 64be 1e33 8dbe 0ff0 4dbe
00000030: 9747 e43e 42f7 c53d 8bb2 143f d61f 1c3e
00000040: 7a79 f2bd 554a af3e aaca a2bd

fc4.weight f4 [10, 19]
0.21206526 -0.19821082 0.042588565 0.9529551 -0.04998212 -0.23989695 0.10016894 0.021567438
-0.1614385 -0.40387723 0.6855548 -0.27285463 -0.12697256 0.14064811 0.18664968 -0.2049185
-0.29056075 -0.03508214 -0.15543087 0.16734241 0.13844079 -0.18987864 -0.43908983 -0.46490535
0.38493732 -0.54103136 -0.6952556 -0.12735665 0.5792746 -0.23661181 -0.2531889 -0.38020593
-0.093950294 -0.2163161 -0.15457241 0.72569 0.7396032 0.12576665 -0.08828209 0.22453125
0.11269171 0.28265947 -0.14844754 -0.23773812 -0.5127046 0.46947363 0.51814514 0.18486734
-0.21627624 0.24372044 -0.038221642 0.13089804 -0.43914062 0.45546252 0.45759374 -0.4051257
-0.10594546 -0.0025115083 -0.02381967 0.52573687 -0.16548605 -0.30111223 0.37149772 -0.1334299
0.1213592 -0.25123268 -0.55653036 -0.19889247 0.507118 0.50607294 -0.10643467 -0.51539797
0.7356811 -0.4099505 0.24296772 -0.029193103 -0.15392843 -0.20292601 -0.4699102 0.12066897
0.16989468 -0.3192146 0.838013 -0.0072231013 0.24279507 0.6523326 -0.43937385 -0.46008065
-0.43482873 0.4131688 0.021643015 0.26305428 -0.1588342 0.49956575 -0.2516507 0.2935396
0.3223881 0.9274187 -0.68161315 0.26620868 -0.43163943 0.21281344 -0.3412329 0.0945216
-0.5342156 -0.35698986 0.39915785 0.2554633 0.004898392 0.57494044 -0.26540667 -0.028119314
0.06651377 0.17094688 -0.22091281 0.6977494 -0.18145928 -0.0061723078 -0.3073601 -0.7161813
0.6079203 -0.4079833 0.09945926 -0.62356275 0.3685673 -0.2872069 0.28187993 0.21417058
0.32683018 -0.26411882 0.3071294 -0.21943337 -0.21638265 -0.13001497 -0.24623688 -0.06711761
-0.3593801 0.3006373 0.54856193 -0.4607162 0.14484523 -0.18249975 0.5914732 0.5527352
0.50416356 -0.42088315 -0.03676152 -0.38435373 -0.1700802 0.049722653 -0.59135777 0.20564522
-0.053859547 -0.23869434 -0.18558566 -0.07244512 -0.36794066 0.14254647 -0.15677616 0.72050595
-0.33101204 -0.30891982 -0.18812092 -0.19043544 0.86045 0.02476925 0.6322467 -0.29810286
0.33141908 0.07632621 -0.0574487 -0.32665524 -0.030910507 -0.09573477 0.37650523 0.93990654
0.69832075 0.42452428 0.34959581 -0.09568815 -0.35647765 -0.3628965 -0.27905685 -0.022606675
0.19451308 -0.0082777655 -0.14305517 -0.60390115 0.33309963 0.1297937
00000000: a327 593e c7f7 4abe 5971 2e3d def4 733f
00000010: 0dba 4cbd 8ca7 75be 6025 cd3d 32ae b03c
00000020: 2250 25be ffc8 cebe 8580 2f3f 9ab3 8bbe
00000030: 1805 02be 0f06 103e 1821 3f3e 28d6 51be
00000040: 61c4 94be 4ab2 0fbd 4529 1fbe cf5b 2b3e
00000050: 6cc3 0d3e 8c6f 42be 62d0 e0be 1308 eebe
00000060: 8116 c53e 0881 0abf 45fc 31bf c869 02be
00000070: 574b 143f 5e4a 72be faa1 81be 5aaa c2be
00000080: 0369 c0bd f881 5dbe 3b48 1ebe d2c6 393f
00000090: a356 3d3f f9c8 003e 3ecd b4bd 85eb 653e
000000a0: e9ca e63d beb8 903e a202 18be 9f71 73be
000000b0: 9c40 03bf d95e f03e 29a5 043f dd4d 3d3e
000000c0: 8577 5dbe da91 793e 4c8e 1cbd 230a 063e
000000d0: 0ad7 e0be 6232 e93e ba49 ea3e a36c cfbe
000000e0: eff9 d8bd 1e98 24bb 7821 c3bc b196 063f
000000f0: 2d75 29be 622b 9abe f334 be3e d9a1 08be
00000100: 2c8b f83d 92a1 80be c678 0ebf 78aa 4bbe
00000110: 7cd2 013f ff8d 013f 6cfa d9bd 1ff1 03bf
00000120: 9955 3c3f 08e5 d1be 88cc 783e 6026 efbc
00000130: 6a9f 1dbe d6cb 4fbe 1298 f0be 4b21 f73d
00000140: dff8 2d3e 1970 a3be 0588 563f c4af ecbb
00000150: 459f 783e 45ff 263f 9cf5 e0be b18f ebbe
00000160: dfa1 debe dc8a d33e b14c b13c 0daf 863e
00000170: 6fa5 22be 15c7 ff3e 5cd8 80be d34a 963e
00000180: 0e10 a53e 506b 6d3f 337e 2ebf 814c 883e
00000190: d8ff dcbe c4eb 593e 14b6 aebe 8a94 c13d
000001a0: 5bc2 08bf 60c7 b6be 6b5e cc3e 16cc 823e
000001b0: b182 a03b 4c2f 133f 62e3 87be 7a5a e6bc
000001c0: 5f38 883d b30c 2f3e f836 62be b49f 323f
000001d0: 76d0 39be 1241 cabb 4e5e 9dbe a857 37bf
000001e0: aaa0 1b3f 30e3 d0be 4cb1 cb3d cfa1 1fbf
000001f0: dab4 bc3e c80c 93be 9152 903e 884f 5b3e
00000200: 4956 a73e 953a 87be 1140 9d3e 24b3 60be
00000210: 6a93 5dbe a522 05be 8525 7cbe f574 89bd
00000220: ab00 b8be 22ed 993e 8e6e 0c3f fee2 ebbe
00000230: 4f52 143e 37e1 3abe ca6a 173f 0e80 0d3f
00000240: dd10 013f ff7d d7be 3f93 16bd 03ca c4be
00000250: 8129 2ebe fba9 4b3d 3963 17bf a994 523e
00000260: d49b 5cbd 4a6c 74be 2b0a 3ebe 1b5e 94bd
00000270: b862 bcbe b4f7 113e ee89 20be 1473 383f
00000280: 697a a9be bd2a 9ebe c5a2 40be 8201 43be
00000290: 7446 5c3f e2e8 ca3c ebda 213f f0a0 98be
000002a0: c3af a93e ea50 9c3d 544f 6bbd 5b3f a7be
000002b0: 0838 fdbc 9710 c4bd 4bc5 c03e b79d 703f
000002c0: 26c5 323f 3f5b d93e 39fe b23e 26f8 c3bd
000002d0: 3d84 b6be 92cd b9be 8ae0 8ebe a231 b9bc
000002e0: 702e 473e 779f 07bc 0e7d 12be 4499 1abf
000002f0: 098c aa3e a4e8 043e

fc4.bias f4 [10]
-0.14548776 -0.12549478 -0.09317405 -0.31834823 0.0431385 -0.42423144 -0.5031182 -0.4750447
0.864493 0.38624662
00000000: befa 14be b481 00be 09d2 bebd 8afe a2be
00000010: ffb1 303d dd34 d9be 5bcc 00bf 0f39 f3be
00000020: 6a4f 5d3f 1ec2 c53e
